data.pth (torch, 16298 bytes, 6 tensors)

l1.weight f4 [16, 142]
0	0xbc56d94d	-0.013113332
1	0x3efddf15	0.4958426
2	0xbe815617	-0.25260994
3	0x3ee4f1a1	0.44715598
4	0xbdea981c	-0.11454794
5	0x3e541ae0	0.20713377
6	0x3e8109d2	0.25202805
7	0x3efd1138	0.494272
8	0xbf1c64d1	-0.61091334
9	0xbcaec5dd	-0.021334583
10	0xbdf2facf	-0.11864244
11	0x3ecbc9c9	0.39802387
12	0x3c352436	0.011055997
13	0x3f235b6b	0.6381137
14	0x3e988b28	0.29793668
15	0xbe18e536	-0.14931187
16	0x3e3b987c	0.18319887
17	0x3db4dfa6	0.0883172
18	0x3ecd9d53	0.4015909
19	0xbee7ad3f	-0.45249364
20	0x3dbc8299	0.09204597
21	0xbef00e6b	-0.46886
22	0x3ecd606a	0.4011262
23	0xbe18534d	-0.14875527
24	0xbed8853e	-0.42289156
25	0x3df17927	0.11790686
26	0x3eebaec8	0.46031785
27	0x3e6cdbd2	0.2313073
28	0x3ebc101b	0.36731037
29	0xbd5c98aa	-0.05385653
30	0xbeddb522	-0.43302256
31	0x3f201177	0.6252665
32	0xbca0c61e	-0.01962572
33	0x3e9773a4	0.29580414
34	0x3e32086a	0.17386022
35	0x3ead3646	0.3383047
36	0x3e344559	0.17604579
37	0x3ef2cff2	0.47424275
38	0xbc4fab8f	-0.01267518
39	0x3f184c7f	0.59491724
40	0x3f25720b	0.6462714
41	0x3ea7f8b0	0.3280692
42	0x3f001238	0.500278
43	0x3ed9d1b4	0.42542803
44	0xbea9b214	-0.33143675
45	0x3efb05de	0.49027914
46	0x3f5478ec	0.8299701
47	0x3ec6c22c	0.38820016
48	0x3e86756a	0.26261455
49	0x3e8c2884	0.2737466
50	0x3e0aa13a	0.13538066
51	0x3e9f950c	0.311684
52	0x3ec5f7bd	0.38665572
53	0x3e968dba	0.29405004
54	0xbe5ac2d2	-0.2136338
55	0x3f09eef0	0.53880215
56	0xbbcb7422	-0.0062089125
57	0xbec37604	-0.38175976
58	0xbd449dae	-0.048001938
59	0x3ef5fff7	0.48046848
60	0x3ee43b0f	0.44576308
61	0x3f039066	0.5139221
62	0x3eabde62	0.33568102
63	0xbe4fbd6a	-0.202871
64	0xbeab0e67	-0.33409426
65	0x3ea0fa28	0.31440854
66	0x3ed2d2d6	0.4117648
67	0x3f22ef5b	0.6364648
68	0x3ec7502b	0.3892835
69	0xbe8bf717	-0.27336952
70	0xbecee9c5	-0.40412727
71	0x3e7b84e7	0.24562417
72	0x3e8fbb22	0.28072459
73	0xbd96ba51	-0.07359756
74	0xbf2d6b2d	-0.6774166
75	0x3f138387	0.5762257
76	0x3f017e06	0.5058292
77	0x3ef98239	0.48732165
78	0xbd4c4293	-0.049868178
79	0x3d8f5b29	0.06999809
80	0x3f0544fb	0.5205838
81	0xbf1dbb47	-0.6161389
82	0x3e132068	0.14367831
83	0x3ee9b0cc	0.45642698
84	0x3e99659b	0.2996033
85	0xbe98c52a	-0.29837924
86	0x3f14ef9e	0.58178127
87	0xbd2e9019	-0.04261789
88	0xbe293547	-0.1652423
89	0xbed2a4e7	-0.41141436
90	0xbedc684d	-0.43048325
91	0xbe1cafb7	-0.15301405
92	0x3ea39b0c	0.3195423
93	0xbe5e39f0	-0.21701789
94	0x3f23da35	0.6400483
95	0x3d824e7f	0.06362628
96	0x3ef41962	0.47675616
97	0x3eb273d3	0.34853992
98	0xbe588665	-0.21145017
99	0xbecd59d1	-0.40107587
100	0x3eec22dc	0.46120346
101	0xbf081255	-0.5315297
102	0xbf364c1a	-0.7120987
103	0x3f0e7685	0.55649596
104	0xbd14b60d	-0.03630643
105	0xbd258f93	-0.040420126
106	0xbe903fd5	-0.281737
107	0xbdc04a2a	-0.09389146
108	0x3ecf7cc3	0.40524873
109	0xbdfc0fe8	-0.123077214
110	0x3f347383	0.70488757
111	0xbdf0a92a	-0.117510155
112	0x3ea2efa7	0.31823465
113	0x3ebe95cb	0.37223658
114	0x3e8c6ec9	0.27428272
115	0xbda1ecf4	-0.07906523
116	0x3df97fab	0.12182554
117	0xbea242f9	-0.3169172
118	0xbea4666c	-0.32109392
119	0x3e819565	0.2530929
120	0xbed6ee68	-0.41978765
121	0xbcb80529	-0.022463398
122	0x3a87efdf	0.001037117
123	0xba8becc0	-0.0010675415
124	0x3e9158b4	0.28387988
125	0x3e4710c5	0.19439991
126	0x3e68f770	0.2275064
127	0x3e785acd	0.24253388
128	0xbe9bdd5e	-0.30442327
129	0xbec48250	-0.3838067
130	0x3eac2d17	0.3362815
131	0x3edbd946	0.42939204
132	0x3f30bd11	0.6903849
133	0x3ecf4d3d	0.40488616
134	0xbe41e0e2	-0.18933442
135	0x3ed8adba	0.42320043
136	0x3efaed42	0.49009138
137	0xbefdfe39	-0.4960802
138	0xbdd911d6	-0.10599105
139	0x3e1df513	0.1542552
140	0x3e71c4b7	0.23610197
141	0x3edf26e0	0.43584347
142	0xbd98ad7c	-0.074549645
143	0x3e8b6a6c	0.2722963
144	0x3e2b08f3	0.16702633
145	0xbe94c23f	-0.29054448
146	0x3e606e3e	0.21917054
147	0x3e922c41	0.28549388
148	0xbc7b5661	-0.015340419
149	0xbed8ca15	-0.42341676
150	0x3ee515c6	0.44743174
151	0x3f049123	0.5178396
152	0x3d630ce6	0.055432223
153	0xbe3f2a1e	-0.1866841
154	0x3e866359	0.2624767
155	0xbe310427	-0.1728674
156	0xbd6b8b45	-0.057505865
157	0x3e1ebfaa	0.15502802
158	0x3e7bfeb2	0.24608877
159	0xbed34aeb	-0.41268095
160	0xbe67a018	-0.22619665
161	0x3efd2586	0.4944269
162	0x3ea3bf89	0.31982067
163	0x3e7200a8	0.23633063
164	0x3e490fed	0.19634981
165	0x3ed4c978	0.41559958
166	0x3f247c44	0.64252114
167	0x3de57f2a	0.11205895
168	0x3e4ac25b	0.19800703
169	0x3f1889f5	0.59585506
170	0x3ece0281	0.40236285
171	0xbd004de8	-0.031324297
172	0x3e422f93	0.1896346
173	0xbe5b650b	-0.21425264
174	0x3e8518b2	0.25995404
175	0x3f1b8a9b	0.6075837
176	0x3e5e19d6	0.21689543
177	0xbe75171e	-0.239346
178	0x3ef30999	0.4746826
179	0x3d91edd6	0.07125442
180	0x3edfde4e	0.43724293
181	0x3eae14bb	0.3400019
182	0x3e8ad3d3	0.27114734
183	0xbeb64572	-0.35599858
184	0xbee66853	-0.45001468
185	0xbee982f6	-0.45607728
186	0xbe5e4f8a	-0.21710029
187	0xbeee7045	-0.4657003
188	0x3ea386b7	0.31938717
189	0xbdf51504	-0.11966899
190	0x3f0731c1	0.52810293
191	0xbec0c65e	-0.37651342
192	0x3ed2f602	0.41203314
193	0xbd36f531	-0.044667426
194	0xbeaa825f	-0.3330259
195	0x3f21e868	0.6324525
196	0x3df7cfd6	0.121001884
197	0x3ead253b	0.33817467
198	0x3f355c90	0.70844364
199	0x3e40dc8d	0.18834133
200	0x3eb6e90a	0.3572467
201	0xbeea6a61	-0.45784286
202	0xbeec2ff1	-0.46130326
203	0x3e7bc2db	0.2458605
204	0xbe053d0b	-0.13011567
205	0x3ebcc599	0.36869505
206	0x3f08d027	0.53442615
207	0x3e2c7874	0.16842824
208	0xbc92cef3	-0.017920947
209	0xbeee7506	-0.46573657
210	0x3dfbbe18	0.12292117
211	0xbe888789	-0.26665905
212	0xbeb1068f	-0.34575316
213	0xbe236b9a	-0.15959015
214	0xbe224329	-0.15845932
215	0xbda250d9	-0.07925577
216	0x3f05cc9e	0.52265346
217	0xbe9c6363	-0.30544576
218	0x3e9933cd	0.29922333
219	0x3e8a3da7	0.27000162
220	0x3e039310	0.12849069
221	0x3ed31f88	0.41234994
222	0x3ea3bd21	0.3198023
223	0x3f086117	0.5327315
224	0x3e7bbbea	0.24583402
225	0xbe054bc3	-0.13017182
226	0xbee3d689	-0.44499615
227	0xbf114898	-0.56751394
228	0xbeee7920	-0.46576786
229	0x3cd0fe08	0.025511757
230	0xbd0fd496	-0.035114847
231	0x3e1454ff	0.14485548
232	0x3f04d334	0.5188477
233	0xbf1053a4	-0.56377625
234	0x3ddea6aa	0.108716324
235	0x3ed01cad	0.40646878
236	0xbf2869f2	-0.6578666
237	0x3e232f2b	0.15935962
238	0xbedc9651	-0.43083432
239	0xbebf7561	-0.3739424
240	0x3e9600dc	0.2929753
241	0xbf1fde3d	-0.62448484
242	0xbec50d4d	-0.3848671
243	0x3e8d6cf4	0.27622187
244	0x3f0e1a73	0.5550911
245	0x3e1a9956	0.15097556
246	0x3e9a99e8	0.30195546
247	0xbb96fd81	-0.0046078567
248	0x3f8802ec	1.0625892
249	0x3eeac640	0.45854378
250	0x3e162269	0.14661564
251	0x3e93a67e	0.2883796
252	0x3e90af88	0.2825892
253	0xbbc60bea	-0.0060439007
254	0xbe8ee326	-0.27907676
255	0x3cf987d1	0.03046027

l1.bias f4 [16]
0	0x3f678732	0.90440667
1	0x3eee7037	0.46569988
2	0x3efbc85c	0.491763
3	0x3f701cbf	0.93793863
4	0x3f0e1ce6	0.55512846
5	0x3edd64a2	0.4324084
6	0x3f5ed16e	0.87038314
7	0x3efb1f3a	0.4904726
8	0x3efcc00c	0.4936527
9	0x3ef09b6e	0.46993583
10	0x3f68777c	0.9080732
11	0x3f80a613	1.0050682
12	0x3f069fda	0.52587664
13	0x3f2575f0	0.64633083
14	0x3f4510a9	0.76978546
15	0x3ee5d18f	0.44886443

l2.weight f4 [16, 16]
0	0xbd9fdedd	-0.0780618
1	0x3da49923	0.08037021
2	0x3f7aee11	0.9801951
3	0x3f881709	1.063203
4	0xbe8ff1c6	-0.28114146
5	0x3c89402f	0.016754238
6	0xbe4b8cad	-0.19877882
7	0xbf7172a0	-0.9431553
8	0x3f015e13	0.5053417
9	0x3f991ce8	1.1961946
10	0x3e91b82d	0.28460827
11	0x3f894d47	1.0726708
12	0xbf783a09	-0.96963555
13	0x3f185569	0.59505326
14	0xbf4c581d	-0.7982195
15	0x3f753835	0.9578889
16	0x3f43db9e	0.76506984
17	0x3f7ca322	0.9868642
18	0x3fb4ff45	1.4140402
19	0x3f114a9a	0.5675446
20	0xbf0b4343	-0.5439951
21	0xbdcca231	-0.09991873
22	0xbea99076	-0.33118027
23	0xbeba7745	-0.3641912
24	0x3ecfa01b	0.40551838
25	0xbf140ce1	-0.5783215
26	0x3ec1ad93	0.3782774
27	0xbeb1f8b7	-0.34760067
28	0x3f341abd	0.703533
29	0xbfaacac1	-1.3343126
30	0x3f811873	1.0085586
31	0x3f9aea0d	1.2102677
32	0x3bc4cfb7	0.006006207
33	0xbe76ee30	-0.24114299
34	0xbe875a4c	-0.2643608
35	0xbd132234	-0.03592129
36	0xbbfa70c6	-0.007642838
37	0xbe568694	-0.20949775
38	0x3d80c5ed	0.06287751
39	0x3dadd653	0.08488145
40	0x3decbcb7	0.11559432
41	0x3e55e914	0.20889693
42	0xbe39d984	-0.18149382
43	0xbd8712be	-0.06595372
44	0xbe21c061	-0.15796043
45	0xbdb72ee0	-0.089444876
46	0xbe4bed3b	-0.19914715
47	0xbd544788	-0.05182603
48	0xbd54954e	-0.0519002
49	0x3e16461e	0.14675185
50	0xbc6557b6	-0.013997963
51	0x3e069ff2	0.13146952
52	0x3a4a29d1	0.00077119196
53	0xbdf02774	-0.11726275
54	0xbdab8ad0	-0.08376086
55	0xbe36e044	-0.17858988
56	0xbd9e5897	-0.07731741
57	0x3d38c38e	0.04510837
58	0xbdeda9ff	-0.1160469
59	0xbd9cab3b	-0.07649847
60	0xbcfa1f60	-0.030532539
61	0xbe17aff0	-0.14813209
62	0xbe296f22	-0.165463
63	0xbe399fb0	-0.18127322
64	0x3b9441d4	0.004524449
65	0x3dbb822f	0.0915569
66	0xbe0c454a	-0.13698307
67	0x3d9beb59	0.076132484
68	0xbe423c5c	-0.18968338
69	0x3e18d017	0.1492313
70	0xbdeb7861	-0.1149757
71	0xbd87ecc3	-0.066369556
72	0x3de924f4	0.113840014
73	0x3ce9bcec	0.028532468
74	0xbe50f823	-0.20407157
75	0xbe566550	-0.20937085
76	0x3db60fa4	0.08889702
77	0xbd8522e4	-0.065007955
78	0xbe82ba8f	-0.25532958
79	0xbe5b5da3	-0.21422438
80	0xbdb6e0d4	-0.08929601
81	0x3d38bce0	0.045102
82	0xbe13e5c0	-0.14443111
83	0xbdeaa1f8	-0.11456674
84	0xbe1ef9b6	-0.15524945
85	0x3e2297f2	0.15878275
86	0xbdccb654	-0.09995714
87	0xbe5d22f6	-0.21595368
88	0x3daa071c	0.08302137
89	0xbe296bf4	-0.16545087
90	0xbe59045e	-0.21193072
91	0xbe57102a	-0.2100226
92	0x3e6c8930	0.23099208
93	0xbe71ccb6	-0.23613247
94	0xbe56aa10	-0.20963311
95	0xbcdf9870	-0.027294368
96	0x3f3be6fe	0.7339934
97	0xbdeb1fc0	-0.11480665
98	0xbf07e499	-0.5308319
99	0x3f566b71	0.8375769
100	0x3f4567c4	0.7711146
101	0x3ea1cd30	0.31601858
102	0x3f16f4cf	0.589673
103	0xbdca8f6c	-0.09890637
104	0x3f3d7717	0.7400984
105	0xbf12a972	-0.57289803
106	0xbf5c9eb9	-0.8617969
107	0x3f6b6cbd	0.91962796
108	0xbed26ea5	-0.4110004
109	0x3f2cef87	0.6755299
110	0x3e9fa92c	0.31183755
111	0xbf4737fc	-0.778198
112	0xbf912cea	-1.1341832
113	0x3fbe4a8d	1.4866501
114	0x3f47e22f	0.78079504
115	0xbf75fd38	-0.96089506
116	0x3f4631c8	0.7741971
117	0x3d5bd94d	0.05367403
118	0x3f692470	0.91071224
119	0x3f38f8cf	0.7225465
120	0xbf4c7c49	-0.79877144
121	0xbd8b1daa	-0.06792767
122	0x3f309404	0.68975854
123	0x3f266e01	0.650116
124	0x3fc69b08	1.5516062
125	0x3f268a81	0.6505509
126	0x3fa382eb	1.2774328
127	0x3f91a748	1.1379175
128	0x3ea2f837	0.31829998
129	0x3f01710c	0.5056312
130	0xbeadc197	-0.3393676
131	0x3f5bf9ff	0.8592834
132	0x3f1491a2	0.5803472
133	0x3fc7f837	1.5622624
134	0xbf7fb2f7	-0.99882454
135	0x3ebdab97	0.37044975
136	0x3f7650e4	0.9621718
137	0xbef10d2d	-0.47080365
138	0xbf9ca21f	-1.2236975
139	0xbe8f179a	-0.27947694
140	0x3e80a3da	0.2512501
141	0x3e9268ab	0.2859548
142	0x3f796046	0.97412527
143	0x3f6c54a6	0.92316663
144	0x3f2534a4	0.6453345
145	0xbf56f910	-0.8397379
146	0xbded19fb	-0.11577221
147	0x3f90e8ed	1.1321083
148	0x3f8bc2a4	1.0918775
149	0x3f82ed9b	1.0228761
150	0x3f45c0a2	0.7724706
151	0x3f96abf6	1.1771228
152	0x3f6a7d4b	0.9159743
153	0x3f4be547	0.79646724
154	0x3db5cbd6	0.08876769
155	0x3f2edd49	0.68306404
156	0xbe8f96f3	-0.28044853
157	0x3fa0ded6	1.2568004
158	0xbe11bee8	-0.14232981
159	0xbf8b7e34	-1.0897889
160	0x3f9d20fe	1.2275693
161	0x3dacd5c0	0.08439207
162	0xbf35aff9	-0.7097164
163	0x3f21e38f	0.6323785
164	0xbf1d2cb2	-0.61396325
165	0x3f4435e3	0.76644725
166	0x3f2ace81	0.6672135
167	0xbeab7c0e	-0.33493084
168	0x3f13c22b	0.5771815
169	0xbf431785	-0.7620776
170	0x3fb79bb9	1.4344398
171	0x3f95c09d	1.1699406
172	0xbebed685	-0.3727304
173	0xbef8339f	-0.48476884
174	0x3f59c042	0.8505899
175	0x3eec70eb	0.461799
176	0x3d70d521	0.058797006
177	0x3e5a0de6	0.21294364
178	0xbf42cf4f	-0.7609758
179	0x3f02746a	0.50958884
180	0xbed503c1	-0.41604427
181	0x3f860e86	1.0473182
182	0xbeebd6e6	-0.46062392
183	0xbd4da536	-0.050206386
184	0x3e32b2b0	0.17450976
185	0xbeeb791a	-0.4599083
186	0x3f232aa0	0.63736916
187	0x3fb2663a	1.3937447
188	0xbe7d990d	-0.24765415
189	0x3f1089be	0.5646018
190	0x3f968cb6	1.1761692
191	0x3ed2329d	0.4105424
192	0x3f8bba36	1.0916202
193	0xbecdfad9	-0.40230444
194	0x3f81c9ed	1.0139748
195	0x3f761058	0.9611869
196	0xbe63c22d	-0.22242041
197	0xbfb42128	-1.4072618
198	0x3e092b69	0.13395466
199	0xbfadf3a1	-1.3589975
200	0xbe8f41e4	-0.27979958
201	0x3ed63490	0.41836977
202	0x3e2e99d0	0.17050862
203	0x3f668fee	0.9006337
204	0x3eee9cc7	0.46603987
205	0x3df22e5a	0.11825247
206	0xbd9ab266	-0.07553558
207	0x3f292942	0.6607858
208	0x3e463fb4	0.19360238
209	0x3f92a578	1.1456747
210	0x3fa5776a	1.2927067
211	0x3ecb3f3c	0.39696681
212	0x3f881b59	1.0633346
213	0x3f058300	0.52153015
214	0xbeba3c1d	-0.36373988
215	0x3e49197e	0.19638631
216	0x3f5c7dfc	0.86129737
217	0x3fd45e8a	1.6591351
218	0xbe16409c	-0.14673084
219	0xbf8c5af7	-1.096526
220	0x3f2a60de	0.6655406
221	0x3e8a27fe	0.26983637
222	0xbf634be2	-0.88787663
223	0x3f666a2a	0.90005744
224	0x3f107763	0.5643217
225	0xbf23e940	-0.64027786
226	0xbf4481f7	-0.7676081
227	0x3f3f401f	0.74707216
228	0x3e5f9422	0.21833852
229	0x3e0da734	0.13833314
230	0x3e440733	0.19143371
231	0x3f9b06f4	1.2111497
232	0x3e65cad3	0.22440653
233	0x3ebc506b	0.36780104
234	0x3f83172f	1.024145
235	0xbf3ec8d1	-0.7452517
236	0x3f6e4a37	0.9308199
237	0x3f2c2724	0.67247224
238	0x3e26dd41	0.16295339
239	0xbf062d27	-0.52412647
240	0x3f9607ed	1.1721169
241	0x3ea4c5ea	0.32182246
242	0x3e3ee086	0.18640336
243	0x3e4d77a6	0.20065174
244	0x3ec2f017	0.380738
245	0xbf3fb121	-0.7487965
246	0x3fb41943	1.4070209
247	0x3f6b3190	0.918725
248	0xbf2738eb	-0.65321225
249	0xbf4760f9	-0.77882344
250	0x3fa47189	1.2847148
251	0x3f1e08c1	0.6173211
252	0x3fb9dfab	1.4521383
253	0xbf2a1208	-0.66433764
254	0x3f86c0d2	1.0527594
255	0xbf1435d9	-0.57894665

l2.bias f4 [16]
0	0x3e5e573d	0.21712966
1	0x3e74f0cb	0.2391998
2	0xbe34b797	-0.17648159
3	0xbdfae12f	-0.122499816
4	0xbe3f206b	-0.1866471
5	0xbdea669c	-0.114453524
6	0x3ea9c73a	0.3315981
7	0x3e03aa18	0.12857854
8	0xbe3f922f	-0.18708108
9	0x3e8421fc	0.25807178
10	0x3e2a0d20	0.1660657
11	0x3e9d8107	0.30762503
12	0x3f1d1c1f	0.61371034
13	0x3e124b25	0.14286478
14	0x3e9b228a	0.3029979
15	0x3f17f2c9	0.59354836

l3.weight f4 [21, 16]
0	0x3f0535de	0.5203532
1	0xbf9a86c9	-1.2072383
2	0xbe54d5c4	-0.2078467
3	0x3dbf6443	0.09345295
4	0x3e407cc4	0.18797594
5	0x3c8b7b70	0.017026633
6	0x3e9ca214	0.30592406
7	0xbfb5da95	-1.4207331
8	0xbf9557ae	-1.1667383
9	0x3e657cae	0.22410843
10	0x3e923a4c	0.28560102
11	0x3bf64339	0.007515338
12	0x3f0b135f	0.5432643
13	0xbf1360c9	-0.5756956
14	0x3d63547b	0.05550049
15	0x3d01ecb9	0.031719897
16	0xbdc35500	-0.09537697
17	0x3eee3cc6	0.4653074
18	0x3d0e6054	0.034759834
19	0x3e0fd140	0.14044666
20	0xbd7f8a63	-0.062387835
21	0x3e410b74	0.18852025
22	0xbe8364bf	-0.256628
23	0xbf1c902b	-0.6115748
24	0x3f03bbb8	0.5145831
25	0xbf389265	-0.7209838
26	0x3eb3547c	0.35025394
27	0x3c653f7a	0.013992185
28	0xbf309983	-0.6898424
29	0x3eb999db	0.36250195
30	0xbfd641b1	-1.6738797
31	0xbf3809bd	-0.7188986
32	0x3ed93c2d	0.42428723
33	0x3ed4d05d	0.4156522
34	0x3da34f73	0.07974138
35	0xbd936669	-0.071972676
36	0xbe4982e4	-0.19678837
37	0xbddb75d0	-0.1071583
38	0xc00fecdd	-2.248832
39	0xbfa93bf8	-1.3221426
40	0xbfd37841	-1.6521074
41	0x3e6f9bb2	0.23399237
42	0xbf9e5b7e	-1.2371671
43	0xbf39c319	-0.7256332
44	0x3f22b13b	0.6355168
45	0x3eae9407	0.3409731
46	0x3d9d4b25	0.07680348
47	0xbd43bec4	-0.04778935
48	0xbfca6d93	-1.5814689
49	0x3eab7cc9	0.3349364
50	0xbe5c0fc3	-0.21490388
51	0xbe47c424	-0.19508415
52	0xbd0fd6b5	-0.03511687
53	0xbe2e3576	-0.17012581
54	0xbef2a270	-0.47389555
55	0x3f08977c	0.53356147
56	0x3e49e491	0.19716097
57	0xc0065128	-2.0987034
58	0xbfc822db	-1.5635637
59	0xbf07249b	-0.5279023
60	0xbddadabf	-0.10686254
61	0x3e6a2054	0.22863895
62	0xbee8a5ff	-0.45439145
63	0x3eb60e7f	0.35557935
64	0xbfa6b6f1	-1.3024579
65	0x3e6a7df1	0.22899605
66	0x3d5ecd12	0.05439479
67	0x3dee6018	0.11639422
68	0xbc32d7b8	-0.010915689
69	0xbde9d7e4	-0.11418131
70	0xbf98d8f8	-1.1941214
71	0x3f15f61a	0.58578646
72	0xbfb0bec6	-1.380822
73	0xbec3312d	-0.38123456
74	0xbf5a6836	-0.85315263
75	0xbf31e686	-0.69492376
76	0xbfbd6687	-1.4796914
77	0xbe488646	-0.19582471
78	0x3ca3799f	0.019955454
79	0x3f2e01fd	0.67971784
80	0xbfc5e16e	-1.5459421
81	0x3da469fe	0.08028029
82	0x3b9c9edb	0.0047796792
83	0xbe669b97	-0.2252029
84	0x3dfcc154	0.12341562
85	0x3e3c48b2	0.18387106
86	0x3ea4defa	0.32201368
87	0x3d99f570	0.075175166
88	0x3ebaa1da	0.36451608
89	0x3ddcdea4	0.10784653
90	0xbfeae608	-1.835145
91	0xbfb8386c	-1.4392219
92	0x3dcfda0f	0.10149013
93	0xbde3c0b9	-0.11120743
94	0xbdbe055d	-0.09278367
95	0x3e5c3cc1	0.21507551
96	0xbedbad88	-0.4290583
97	0x3de2e810	0.11079419
98	0xbcb5c949	-0.022190707
99	0xbe48dbcf	-0.196151
100	0x3c486565	0.012231206
101	0x3e407502	0.18794635
102	0xbf58ed4a	-0.84737074
103	0x3eb2ec2f	0.3494582
104	0xbe417ec8	-0.1889602
105	0xbf0f4a55	-0.55972797
106	0x3d0b23e6	0.033969782
107	0x3e029e2b	0.12755649
108	0xbe441c82	-0.191515
109	0xbdde1ad4	-0.10844961
110	0xbf1730a8	-0.5905862
111	0x3e00e27e	0.125864
112	0x3f006cd0	0.50166035
113	0xbfa08a49	-1.2542201
114	0x3ca3b24d	0.019982481
115	0x3dae8d15	0.08523003
116	0x3e4f649e	0.20253226
117	0x3dd718a0	0.10502744
118	0x3e1cb823	0.15304618
119	0x3dde2552	0.10846962
120	0xbe5f6aa3	-0.21818022
121	0x3ec30381	0.3808861
122	0xbfa533ce	-1.2906435
123	0x3dbb16ce	0.09135209
124	0x3d393111	0.04521281
125	0x3c08908e	0.008335246
126	0xbe758730	-0.23977351
127	0xbfd4ec5e	-1.6634634
128	0xbf3a8b3c	-0.72868705
129	0x3f395bcb	0.7240569
130	0xbe71ac0e	-0.2360079
131	0xbe7bc8fd	-0.2458839
132	0x3dfb61b7	0.12274497
133	0xbd152f68	-0.036422163
134	0xbf29fc16	-0.6640028
135	0xbec56dd7	-0.38560364
136	0x3eb393c0	0.35073662
137	0xc004de21	-2.0760577
138	0x3e065181	0.13117029
139	0x3ded008f	0.11572372
140	0x3f00635e	0.5015162
141	0xbe083d28	-0.1330458
142	0xbf0b9d83	-0.5453722
143	0x3cbdd0ad	0.023170793
144	0x3e3bcddb	0.18340246
145	0xbf842ee5	-1.0326811
146	0x3dd36c66	0.1032341
147	0x3d681721	0.056662682
148	0x3c50ac5e	0.012736408
149	0x3d8cb80c	0.06871042
150	0x3e44763f	0.19185732
151	0x3f2fa82b	0.6861598
152	0xbfb1b70b	-1.3883985
153	0x3c7b3713	0.015332955
154	0xbfb7a4a7	-1.4347123
155	0xbf4fa7e3	-0.8111555
156	0x3ea63fed	0.32470647
157	0x3e066f98	0.13128507
158	0xbf817ef1	-1.0116864
159	0xbda7d7c4	-0.08195451
160	0x3c99ae87	0.018759979
161	0xbf527a9b	-0.8221833
162	0x3db9c6b3	0.09071102
163	0xbdc1eef3	-0.09469404
164	0x3e2cafe1	0.16863967
165	0x3c3047a0	0.010759264
166	0x3f130ecb	0.5744445
167	0xbfde6192	-1.7373526
168	0x3f0a5dcf	0.5404939
169	0x3db9618d	0.090518095
170	0x3e890e99	0.2676895
171	0x3f0707d2	0.5274631
172	0xbea1d78c	-0.31609762
173	0xbedda919	-0.43293074
174	0xbec77a24	-0.38960373
175	0xbfb88c0b	-1.4417738
176	0xbf712f07	-0.94212383
177	0xbf454095	-0.7705167
178	0xbe4ff81e	-0.20309493
179	0x3d7dc8e6	0.06195917
180	0x3d8c2047	0.06842094
181	0x3e0cdeb2	0.13756827
182	0xbea69e5d	-0.32542697
183	0xbe9d16b7	-0.30681393
184	0xbf6b16b9	-0.9183155
185	0x3dedda42	0.11613895
186	0x3d7f2a5c	0.062296256
187	0xbf12468b	-0.5713889
188	0xbe578999	-0.21048583
189	0x3db53edb	0.08849879
190	0x3f1f56b7	0.6224169
191	0x3ed5c35c	0.4175061
192	0x3f24697c	0.64223456
193	0x3e424736	0.18972477
194	0xbe15ebdc	-0.14640754
195	0x3df6f9ed	0.12059388
196	0xbdd8828b	-0.10571774
197	0x3e4eb784	0.20187193
198	0xbf94a097	-1.1611508
199	0x3c0a072e	0.008424563
200	0xbd891975	-0.06694309
201	0xbfb1b2f0	-1.3882732
202	0xbf366cba	-0.71259654
203	0xbf4a2f73	-0.7897865
204	0x3e6e031c	0.23243374
205	0x3e9e5d16	0.30930394
206	0xbf8d0006	-1.1015632
207	0xbf254793	-0.6456234
208	0xbeb7d7aa	-0.35906726
209	0xc00641c4	-2.097764
210	0x3e266b28	0.16251814
211	0x3d5f99ba	0.054589964
212	0xbdc3be20	-0.09557748
213	0xbc2bbfe0	-0.010482758
214	0x3e8d5b1a	0.27608567
215	0xbf95ad19	-1.169345
216	0x3ea104b4	0.314489
217	0x3f1b8b5e	0.6075953
218	0xbf306d0a	-0.6891638
219	0xbe74ca7a	-0.23905364
220	0xbf8f585a	-1.1198838
221	0xbd906a1a	-0.07051487
222	0x3f3a7158	0.728292
223	0xbecc0a56	-0.39851636
224	0xbfb226ab	-1.391805
225	0xbf8d20da	-1.102565
226	0x3e118407	0.1421052
227	0xbd03c859	-0.03217349
228	0x3e235219	0.15949287
229	0x3e538116	0.20654711
230	0xbfd5acd3	-1.6693367
231	0x3f09c067	0.5380921
232	0x3e79ec64	0.24406582
233	0xbd125ce3	-0.035733115
234	0xbfb397db	-1.4030718
235	0x3ee94326	0.45559043
236	0xbf845a43	-1.0340046
237	0x3cb2ae40	0.021811604
238	0x3f1c726c	0.61112094
239	0xbe3ebe43	-0.18627267
240	0xbfabe714	-1.3429894
241	0x3e310211	0.17285945
242	0x3e325baa	0.1741778
243	0xbe44e26f	-0.19227003
244	0xbcfff320	-0.03124386
245	0x3e20286e	0.15640423
246	0xbe632de4	-0.22185475
247	0x3f26b539	0.65120274
248	0xbfb55c21	-1.416874
249	0xbf593200	-0.8484192
250	0x3f09b698	0.5379424
251	0x3ef547e2	0.47906405
252	0xbd7ce330	-0.0617401
253	0xbff8b3a2	-1.942982
254	0x3d4ca43b	0.04996131
255	0x3f0e7d88	0.55660295

l3.bias f4 [21]
0	0x3e9eb00e	0.30993694
1	0xbe9ee103	-0.31031045
2	0x3e409b5a	0.18809262
3	0x3e213ab9	0.15745057
4	0xbe7db9b5	-0.24777873
5	0x3deb45f9	0.114879556
6	0xbc03cada	-0.008043969
7	0xbd9ae824	-0.075638086
8	0x3d0f4db2	0.034986205
9	0x3e3ca5c6	0.18422613
10	0xbe456142	-0.19275382
11	0x3ea17c8e	0.3154034
12	0x3e5e3012	0.21698025
13	0xbd7a6d1b	-0.061139207
14	0xbdfc22f2	-0.12311353
15	0xbd22ed3e	-0.039777033
16	0x3e3acc0d	0.18241902
17	0xbe45c5db	-0.19313757
18	0x3dde4e4d	0.108547784
19	0x3d8c274b	0.06843432
20	0x3d661b53	0.056178402
